multiclass_logreg.pth (torch, 2165 bytes, 2 tensors)

linear.weight f4 [3, 10]
00000000: 3163 c73e ee1e eb3c cf36 643e 8a12 9dbe
00000010: f074 3dbf 0194 0cbd 6b3a b33e abf3 993d
00000020: fd81 cc3f bca8 52bf ef6e d7be 7f7b 37be
00000030: 8d7d 34bc d761 4f3e a0c2 163e 61cf 87bd
00000040: c06a de3e daf4 cd3d 8300 d3bf f7ba 213f
00000050: a3af 193e 8494 e4ba e72b 0bbe 7655 e73e
00000060: a6c7 ff3c a743 f0bd 3f6a babe 3df1 c4bc
00000070: f9b4 ad3d b1c6 87bd
0.38942865 0.028701272 0.22286533 -0.30678207 -0.7400656 -0.034320835 0.35005507 0.07517179
1.5977169 -0.8228872 -0.42076823 -0.17918204 -0.011016262 0.20252167 0.14722681 -0.06631351
0.4344082 0.10056467 -1.6484531 0.6317591 0.15008406 -0.0017439281 -0.13590966 0.4518239
0.03122313 -0.11731654 -0.36409184 -0.024040813 0.084817834 -0.06629694

linear.bias f4 [3]
00000000: 99b4 83be 63b0 84bb 9023 2f3f
-0.25723723 -0.0040493472 0.6841364
